UNet(
  (time_embedding): TimeEmbedding(
    (timembedding): Sequential(
      (0): Embedding(1000, 128)
      (1): Linear(in_features=128, out_features=512, bias=True)
      (2): Swish()
      (3): Linear(in_features=512, out_features=512, bias=True)
    )
  )
  (cond_embedding): ConditionalEmbedding(
    (condEmbedding): Sequential(
      (0): Embedding(11, 128, padding_idx=0)
      (1): Linear(in_features=128, out_features=512, bias=True)
      (2): Swish()
      (3): Linear(in_features=512, out_features=512, bias=True)
    )
  )
  (head): Conv2d(3, 128, kernel_size=(3, 3), stride=(1, 1), padding=(1, 1))
  (downblocks): ModuleList(
    (0): ResBlock(
      (block1): Sequential(
        (0): GroupNorm(32, 128, eps=1e-05, affine=True)
        (1): Swish()
        (2): Conv2d(128, 128, kernel_size=(3, 3), stride=(1, 1), padding=(1, 1))
      )
      (temb_proj): Sequential(
        (0): Swish()
        (1): Linear(in_features=512, out_features=128, bias=True)
      )
      (cond_proj): Sequential(
        (0): Swish()
        (1): Linear(in_features=512, out_features=128, bias=True)
      )
      (block2): Sequential(
        (0): GroupNorm(32, 128, eps=1e-05, affine=True)
        (1): Swish()
        (2): Dropout(p=0.15, inplace=False)
        (3): Conv2d(128, 128, kernel_size=(3, 3), stride=(1, 1), padding=(1, 1))
      )
      (shortcut): Identity()
      (attn): AttnBlock(
        (group_norm): GroupNorm(32, 128, eps=1e-05, affine=True)
        (proj_q): Conv2d(128, 128, kernel_size=(1, 1), stride=(1, 1))
        (proj_k): Conv2d(128, 128, kernel_size=(1, 1), stride=(1, 1))
        (proj_v): Conv2d(128, 128, kernel_size=(1, 1), stride=(1, 1))
        (proj): Conv2d(128, 128, kernel_size=(1, 1), stride=(1, 1))
      )
    )
    (1): ResBlock(
      (block1): Sequential(
        (0): GroupNorm(32, 128, eps=1e-05, affine=True)
        (1): Swish()
        (2): Conv2d(128, 128, kernel_size=(3, 3), stride=(1, 1), padding=(1, 1))
      )
      (temb_proj): Sequential(
        (0): Swish()
        (1): Linear(in_features=512, out_features=128, bias=True)
      )
      (cond_proj): Sequential(
        (0): Swish()
        (1): Linear(in_features=512, out_features=128, bias=True)
      )
      (block2): Sequential(
        (0): GroupNorm(32, 128, eps=1e-05, affine=True)
        (1): Swish()
        (2): Dropout(p=0.15, inplace=False)
        (3): Conv2d(128, 128, kernel_size=(3, 3), stride=(1, 1), padding=(1, 1))
      )
      (shortcut): Identity()
      (attn): AttnBlock(
        (group_norm): GroupNorm(32, 128, eps=1e-05, affine=True)
        (proj_q): Conv2d(128, 128, kernel_size=(1, 1), stride=(1, 1))
        (proj_k): Conv2d(128, 128, kernel_size=(1, 1), stride=(1, 1))
        (proj_v): Conv2d(128, 128, kernel_size=(1, 1), stride=(1, 1))
        (proj): Conv2d(128, 128, kernel_size=(1, 1), stride=(1, 1))
      )
    )
    (2): DownSample(
      (c1): Conv2d(128, 128, kernel_size=(3, 3), stride=(2, 2), padding=(1, 1))
      (c2): Conv2d(128, 128, kernel_size=(5, 5), stride=(2, 2), padding=(2, 2))
    )
    (3): ResBlock(
      (block1): Sequential(
        (0): GroupNorm(32, 128, eps=1e-05, affine=True)
        (1): Swish()
        (2): Conv2d(128, 256, kernel_size=(3, 3), stride=(1, 1), padding=(1, 1))
      )
      (temb_proj): Sequential(
        (0): Swish()
        (1): Linear(in_features=512, out_features=256, bias=True)
      )
      (cond_proj): Sequential(
        (0): Swish()
        (1): Linear(in_features=512, out_features=256, bias=True)
      )
      (block2): Sequential(
        (0): GroupNorm(32, 256, eps=1e-05, affine=True)
        (1): Swish()
        (2): Dropout(p=0.15, inplace=False)
        (3): Conv2d(256, 256, kernel_size=(3, 3), stride=(1, 1), padding=(1, 1))
      )
      (shortcut): Conv2d(128, 256, kernel_size=(1, 1), stride=(1, 1))
      (attn): AttnBlock(
        (group_norm): GroupNorm(32, 256, eps=1e-05, affine=True)
        (proj_q): Conv2d(256, 256, kernel_size=(1, 1), stride=(1, 1))
        (proj_k): Conv2d(256, 256, kernel_size=(1, 1), stride=(1, 1))
        (proj_v): Conv2d(256, 256, kernel_size=(1, 1), stride=(1, 1))
        (proj): Conv2d(256, 256, kernel_size=(1, 1), stride=(1, 1))
      )
    )
    (4): ResBlock(
      (block1): Sequential(
        (0): GroupNorm(32, 256, eps=1e-05, affine=True)
        (1): Swish()
        (2): Conv2d(256, 256, kernel_size=(3, 3), stride=(1, 1), padding=(1, 1))
      )
      (temb_proj): Sequential(
        (0): Swish()
        (1): Linear(in_features=512, out_features=256, bias=True)
      )
      (cond_proj): Sequential(
        (0): Swish()
        (1): Linear(in_features=512, out_features=256, bias=True)
      )
      (block2): Sequential(
        (0): GroupNorm(32, 256, eps=1e-05, affine=True)
        (1): Swish()
        (2): Dropout(p=0.15, inplace=False)
        (3): Conv2d(256, 256, kernel_size=(3, 3), stride=(1, 1), padding=(1, 1))
      )
      (shortcut): Identity()
      (attn): AttnBlock(
        (group_norm): GroupNorm(32, 256, eps=1e-05, affine=True)
        (proj_q): Conv2d(256, 256, kernel_size=(1, 1), stride=(1, 1))
        (proj_k): Conv2d(256, 256, kernel_size=(1, 1), stride=(1, 1))
        (proj_v): Conv2d(256, 256, kernel_size=(1, 1), stride=(1, 1))
        (proj): Conv2d(256, 256, kernel_size=(1, 1), stride=(1, 1))
      )
    )
    (5): DownSample(
      (c1): Conv2d(256, 256, kernel_size=(3, 3), stride=(2, 2), padding=(1, 1))
      (c2): Conv2d(256, 256, kernel_size=(5, 5), stride=(2, 2), padding=(2, 2))
    )
    (6): ResBlock(
      (block1): Sequential(
        (0): GroupNorm(32, 256, eps=1e-05, affine=True)
        (1): Swish()
        (2): Conv2d(256, 256, kernel_size=(3, 3), stride=(1, 1), padding=(1, 1))
      )
      (temb_proj): Sequential(
        (0): Swish()
        (1): Linear(in_features=512, out_features=256, bias=True)
      )
      (cond_proj): Sequential(
        (0): Swish()
        (1): Linear(in_features=512, out_features=256, bias=True)
      )
      (block2): Sequential(
        (0): GroupNorm(32, 256, eps=1e-05, affine=True)
        (1): Swish()
        (2): Dropout(p=0.15, inplace=False)
        (3): Conv2d(256, 256, kernel_size=(3, 3), stride=(1, 1), padding=(1, 1))
      )
      (shortcut): Identity()
      (attn): AttnBlock(
        (group_norm): GroupNorm(32, 256, eps=1e-05, affine=True)
        (proj_q): Conv2d(256, 256, kernel_size=(1, 1), stride=(1, 1))
        (proj_k): Conv2d(256, 256, kernel_size=(1, 1), stride=(1, 1))
        (proj_v): Conv2d(256, 256, kernel_size=(1, 1), stride=(1, 1))
        (proj): Conv2d(256, 256, kernel_size=(1, 1), stride=(1, 1))
      )
    )
    (7): ResBlock(
      (block1): Sequential(
        (0): GroupNorm(32, 256, eps=1e-05, affine=True)
        (1): Swish()
        (2): Conv2d(256, 256, kernel_size=(3, 3), stride=(1, 1), padding=(1, 1))
      )
      (temb_proj): Sequential(
        (0): Swish()
        (1): Linear(in_features=512, out_features=256, bias=True)
      )
      (cond_proj): Sequential(
        (0): Swish()
        (1): Linear(in_features=512, out_features=256, bias=True)
      )
      (block2): Sequential(
        (0): GroupNorm(32, 256, eps=1e-05, affine=True)
        (1): Swish()
        (2): Dropout(p=0.15, inplace=False)
        (3): Conv2d(256, 256, kernel_size=(3, 3), stride=(1, 1), padding=(1, 1))
      )
      (shortcut): Identity()
      (attn): AttnBlock(
        (group_norm): GroupNorm(32, 256, eps=1e-05, affine=True)
        (proj_q): Conv2d(256, 256, kernel_size=(1, 1), stride=(1, 1))
        (proj_k): Conv2d(256, 256, kernel_size=(1, 1), stride=(1, 1))
        (proj_v): Conv2d(256, 256, kernel_size=(1, 1), stride=(1, 1))
        (proj): Conv2d(256, 256, kernel_size=(1, 1), stride=(1, 1))
      )
    )
    (8): DownSample(
      (c1): Conv2d(256, 256, kernel_size=(3, 3), stride=(2, 2), padding=(1, 1))
      (c2): Conv2d(256, 256, kernel_size=(5, 5), stride=(2, 2), padding=(2, 2))
    )
    (9): ResBlock(
      (block1): Sequential(
        (0): GroupNorm(32, 256, eps=1e-05, affine=True)
        (1): Swish()
        (2): Conv2d(256, 256, kernel_size=(3, 3), stride=(1, 1), padding=(1, 1))
      )
      (temb_proj): Sequential(
        (0): Swish()
        (1): Linear(in_features=512, out_features=256, bias=True)
      )
      (cond_proj): Sequential(
        (0): Swish()
        (1): Linear(in_features=512, out_features=256, bias=True)
      )
      (block2): Sequential(
        (0): GroupNorm(32, 256, eps=1e-05, affine=True)
        (1): Swish()
        (2): Dropout(p=0.15, inplace=False)
        (3): Conv2d(256, 256, kernel_size=(3, 3), stride=(1, 1), padding=(1, 1))
      )
      (shortcut): Identity()
      (attn): AttnBlock(
        (group_norm): GroupNorm(32, 256, eps=1e-05, affine=True)
        (proj_q): Conv2d(256, 256, kernel_size=(1, 1), stride=(1, 1))
        (proj_k): Conv2d(256, 256, kernel_size=(1, 1), stride=(1, 1))
        (proj_v): Conv2d(256, 256, kernel_size=(1, 1), stride=(1, 1))
        (proj): Conv2d(256, 256, kernel_size=(1, 1), stride=(1, 1))
      )
    )
    (10): ResBlock(
      (block1): Sequential(
        (0): GroupNorm(32, 256, eps=1e-05, affine=True)
        (1): Swish()
        (2): Conv2d(256, 256, kernel_size=(3, 3), stride=(1, 1), padding=(1, 1))
      )
      (temb_proj): Sequential(
        (0): Swish()
        (1): Linear(in_features=512, out_features=256, bias=True)
      )
      (cond_proj): Sequential(
        (0): Swish()
        (1): Linear(in_features=512, out_features=256, bias=True)
      )
      (block2): Sequential(
        (0): GroupNorm(32, 256, eps=1e-05, affine=True)
        (1): Swish()
        (2): Dropout(p=0.15, inplace=False)
        (3): Conv2d(256, 256, kernel_size=(3, 3), stride=(1, 1), padding=(1, 1))
      )
      (shortcut): Identity()
      (attn): AttnBlock(
        (group_norm): GroupNorm(32, 256, eps=1e-05, affine=True)
        (proj_q): Conv2d(256, 256, kernel_size=(1, 1), stride=(1, 1))
        (proj_k): Conv2d(256, 256, kernel_size=(1, 1), stride=(1, 1))
        (proj_v): Conv2d(256, 256, kernel_size=(1, 1), stride=(1, 1))
        (proj): Conv2d(256, 256, kernel_size=(1, 1), stride=(1, 1))
      )
    )
  )
  (middleblocks): ModuleList(
    (0): ResBlock(
      (block1): Sequential(
        (0): GroupNorm(32, 256, eps=1e-05, affine=True)
        (1): Swish()
        (2): Conv2d(256, 256, kernel_size=(3, 3), stride=(1, 1), padding=(1, 1))
      )
      (temb_proj): Sequential(
        (0): Swish()
        (1): Linear(in_features=512, out_features=256, bias=True)
      )
      (cond_proj): Sequential(
        (0): Swish()
        (1): Linear(in_features=512, out_features=256, bias=True)
      )
      (block2): Sequential(
        (0): GroupNorm(32, 256, eps=1e-05, affine=True)
        (1): Swish()
        (2): Dropout(p=0.15, inplace=False)
        (3): Conv2d(256, 256, kernel_size=(3, 3), stride=(1, 1), padding=(1, 1))
      )
      (shortcut): Identity()
      (attn): AttnBlock(
        (group_norm): GroupNorm(32, 256, eps=1e-05, affine=True)
        (proj_q): Conv2d(256, 256, kernel_size=(1, 1), stride=(1, 1))
        (proj_k): Conv2d(256, 256, kernel_size=(1, 1), stride=(1, 1))
        (proj_v): Conv2d(256, 256, kernel_size=(1, 1), stride=(1, 1))
        (proj): Conv2d(256, 256, kernel_size=(1, 1), stride=(1, 1))
      )
    )
    (1): ResBlock(
      (block1): Sequential(
        (0): GroupNorm(32, 256, eps=1e-05, affine=True)
        (1): Swish()
        (2): Conv2d(256, 256, kernel_size=(3, 3), stride=(1, 1), padding=(1, 1))
      )
      (temb_proj): Sequential(
        (0): Swish()
        (1): Linear(in_features=512, out_features=256, bias=True)
      )
      (cond_proj): Sequential(
        (0): Swish()
        (1): Linear(in_features=512, out_features=256, bias=True)
      )
      (block2): Sequential(
        (0): GroupNorm(32, 256, eps=1e-05, affine=True)
        (1): Swish()
        (2): Dropout(p=0.15, inplace=False)
        (3): Conv2d(256, 256, kernel_size=(3, 3), stride=(1, 1), padding=(1, 1))
      )
      (shortcut): Identity()
      (attn): Identity()
    )
  )
  (upblocks): ModuleList(
    (0): ResBlock(
      (block1): Sequential(
        (0): GroupNorm(32, 512, eps=1e-05, affine=True)
        (1): Swish()
        (2): Conv2d(512, 256, kernel_size=(3, 3), stride=(1, 1), padding=(1, 1))
      )
      (temb_proj): Sequential(
        (0): Swish()
        (1): Linear(in_features=512, out_features=256, bias=True)
      )
      (cond_proj): Sequential(
        (0): Swish()
        (1): Linear(in_features=512, out_features=256, bias=True)
      )
      (block2): Sequential(
        (0): GroupNorm(32, 256, eps=1e-05, affine=True)
        (1): Swish()
        (2): Dropout(p=0.15, inplace=False)
        (3): Conv2d(256, 256, kernel_size=(3, 3), stride=(1, 1), padding=(1, 1))
      )
      (shortcut): Conv2d(512, 256, kernel_size=(1, 1), stride=(1, 1))
      (attn): Identity()
    )
    (1): ResBlock(
      (block1): Sequential(
        (0): GroupNorm(32, 512, eps=1e-05, affine=True)
        (1): Swish()
        (2): Conv2d(512, 256, kernel_size=(3, 3), stride=(1, 1), padding=(1, 1))
      )
      (temb_proj): Sequential(
        (0): Swish()
        (1): Linear(in_features=512, out_features=256, bias=True)
      )
      (cond_proj): Sequential(
        (0): Swish()
        (1): Linear(in_features=512, out_features=256, bias=True)
      )
      (block2): Sequential(
        (0): GroupNorm(32, 256, eps=1e-05, affine=True)
        (1): Swish()
        (2): Dropout(p=0.15, inplace=False)
        (3): Conv2d(256, 256, kernel_size=(3, 3), stride=(1, 1), padding=(1, 1))
      )
      (shortcut): Conv2d(512, 256, kernel_size=(1, 1), stride=(1, 1))
      (attn): Identity()
    )
    (2): ResBlock(
      (block1): Sequential(
        (0): GroupNorm(32, 512, eps=1e-05, affine=True)
        (1): Swish()
        (2): Conv2d(512, 256, kernel_size=(3, 3), stride=(1, 1), padding=(1, 1))
      )
      (temb_proj): Sequential(
        (0): Swish()
        (1): Linear(in_features=512, out_features=256, bias=True)
      )
      (cond_proj): Sequential(
        (0): Swish()
        (1): Linear(in_features=512, out_features=256, bias=True)
      )
      (block2): Sequential(
        (0): GroupNorm(32, 256, eps=1e-05, affine=True)
        (1): Swish()
        (2): Dropout(p=0.15, inplace=False)
        (3): Conv2d(256, 256, kernel_size=(3, 3), stride=(1, 1), padding=(1, 1))
      )
      (shortcut): Conv2d(512, 256, kernel_size=(1, 1), stride=(1, 1))
      (attn): Identity()
    )
    (3): UpSample(
      (c): Conv2d(256, 256, kernel_size=(3, 3), stride=(1, 1), padding=(1, 1))
      (t): ConvTranspose2d(256, 256, kernel_size=(5, 5), stride=(2, 2), padding=(2, 2), output_padding=(1, 1))
    )
    (4): ResBlock(
      (block1): Sequential(
        (0): GroupNorm(32, 512, eps=1e-05, affine=True)
        (1): Swish()
        (2): Conv2d(512, 256, kernel_size=(3, 3), stride=(1, 1), padding=(1, 1))
      )
      (temb_proj): Sequential(
        (0): Swish()
        (1): Linear(in_features=512, out_features=256, bias=True)
      )
      (cond_proj): Sequential(
        (0): Swish()
        (1): Linear(in_features=512, out_features=256, bias=True)
      )
      (block2): Sequential(
        (0): GroupNorm(32, 256, eps=1e-05, affine=True)
        (1): Swish()
        (2): Dropout(p=0.15, inplace=False)
        (3): Conv2d(256, 256, kernel_size=(3, 3), stride=(1, 1), padding=(1, 1))
      )
      (shortcut): Conv2d(512, 256, kernel_size=(1, 1), stride=(1, 1))
      (attn): Identity()
    )
    (5): ResBlock(
      (block1): Sequential(
        (0): GroupNorm(32, 512, eps=1e-05, affine=True)
        (1): Swish()
        (2): Conv2d(512, 256, kernel_size=(3, 3), stride=(1, 1), padding=(1, 1))
      )
      (temb_proj): Sequential(
        (0): Swish()
        (1): Linear(in_features=512, out_features=256, bias=True)
      )
      (cond_proj): Sequential(
        (0): Swish()
        (1): Linear(in_features=512, out_features=256, bias=True)
      )
      (block2): Sequential(
        (0): GroupNorm(32, 256, eps=1e-05, affine=True)
        (1): Swish()
        (2): Dropout(p=0.15, inplace=False)
        (3): Conv2d(256, 256, kernel_size=(3, 3), stride=(1, 1), padding=(1, 1))
      )
      (shortcut): Conv2d(512, 256, kernel_size=(1, 1), stride=(1, 1))
      (attn): Identity()
    )
    (6): ResBlock(
      (block1): Sequential(
        (0): GroupNorm(32, 512, eps=1e-05, affine=True)
        (1): Swish()
        (2): Conv2d(512, 256, kernel_size=(3, 3), stride=(1, 1), padding=(1, 1))
      )
      (temb_proj): Sequential(
        (0): Swish()
        (1): Linear(in_features=512, out_features=256, bias=True)
      )
      (cond_proj): Sequential(
        (0): Swish()
        (1): Linear(in_features=512, out_features=256, bias=True)
      )
      (block2): Sequential(
        (0): GroupNorm(32, 256, eps=1e-05, affine=True)
        (1): Swish()
        (2): Dropout(p=0.15, inplace=False)
        (3): Conv2d(256, 256, kernel_size=(3, 3), stride=(1, 1), padding=(1, 1))
      )
      (shortcut): Conv2d(512, 256, kernel_size=(1, 1), stride=(1, 1))
      (attn): Identity()
    )
    (7): UpSample(
      (c): Conv2d(256, 256, kernel_size=(3, 3), stride=(1, 1), padding=(1, 1))
      (t): ConvTranspose2d(256, 256, kernel_size=(5, 5), stride=(2, 2), padding=(2, 2), output_padding=(1, 1))
    )
    (8): ResBlock(
      (block1): Sequential(
        (0): GroupNorm(32, 512, eps=1e-05, affine=True)
        (1): Swish()
        (2): Conv2d(512, 256, kernel_size=(3, 3), stride=(1, 1), padding=(1, 1))
      )
      (temb_proj): Sequential(
        (0): Swish()
        (1): Linear(in_features=512, out_features=256, bias=True)
      )
      (cond_proj): Sequential(
        (0): Swish()
        (1): Linear(in_features=512, out_features=256, bias=True)
      )
      (block2): Sequential(
        (0): GroupNorm(32, 256, eps=1e-05, affine=True)
        (1): Swish()
        (2): Dropout(p=0.15, inplace=False)
        (3): Conv2d(256, 256, kernel_size=(3, 3), stride=(1, 1), padding=(1, 1))
      )
      (shortcut): Conv2d(512, 256, kernel_size=(1, 1), stride=(1, 1))
      (attn): Identity()
    )
    (9): ResBlock(
      (block1): Sequential(
        (0): GroupNorm(32, 512, eps=1e-05, affine=True)
        (1): Swish()
        (2): Conv2d(512, 256, kernel_size=(3, 3), stride=(1, 1), padding=(1, 1))
      )
      (temb_proj): Sequential(
        (0): Swish()
        (1): Linear(in_features=512, out_features=256, bias=True)
      )
      (cond_proj): Sequential(
        (0): Swish()
        (1): Linear(in_features=512, out_features=256, bias=True)
      )
      (block2): Sequential(
        (0): GroupNorm(32, 256, eps=1e-05, affine=True)
        (1): Swish()
        (2): Dropout(p=0.15, inplace=False)
        (3): Conv2d(256, 256, kernel_size=(3, 3), stride=(1, 1), padding=(1, 1))
      )
      (shortcut): Conv2d(512, 256, kernel_size=(1, 1), stride=(1, 1))
      (attn): Identity()
    )
    (10): ResBlock(
      (block1): Sequential(
        (0): GroupNorm(32, 384, eps=1e-05, affine=True)
        (1): Swish()
        (2): Conv2d(384, 256, kernel_size=(3, 3), stride=(1, 1), padding=(1, 1))
      )
      (temb_proj): Sequential(
        (0): Swish()
        (1): Linear(in_features=512, out_features=256, bias=True)
      )
      (cond_proj): Sequential(
        (0): Swish()
        (1): Linear(in_features=512, out_features=256, bias=True)
      )
      (block2): Sequential(
        (0): GroupNorm(32, 256, eps=1e-05, affine=True)
        (1): Swish()
        (2): Dropout(p=0.15, inplace=False)
        (3): Conv2d(256, 256, kernel_size=(3, 3), stride=(1, 1), padding=(1, 1))
      )
      (shortcut): Conv2d(384, 256, kernel_size=(1, 1), stride=(1, 1))
      (attn): Identity()
    )
    (11): UpSample(
      (c): Conv2d(256, 256, kernel_size=(3, 3), stride=(1, 1), padding=(1, 1))
      (t): ConvTranspose2d(256, 256, kernel_size=(5, 5), stride=(2, 2), padding=(2, 2), output_padding=(1, 1))
    )
    (12): ResBlock(
      (block1): Sequential(
        (0): GroupNorm(32, 384, eps=1e-05, affine=True)
        (1): Swish()
        (2): Conv2d(384, 128, kernel_size=(3, 3), stride=(1, 1), padding=(1, 1))
      )
      (temb_proj): Sequential(
        (0): Swish()
        (1): Linear(in_features=512, out_features=128, bias=True)
      )
      (cond_proj): Sequential(
        (0): Swish()
        (1): Linear(in_features=512, out_features=128, bias=True)
      )
      (block2): Sequential(
        (0): GroupNorm(32, 128, eps=1e-05, affine=True)
        (1): Swish()
        (2): Dropout(p=0.15, inplace=False)
        (3): Conv2d(128, 128, kernel_size=(3, 3), stride=(1, 1), padding=(1, 1))
      )
      (shortcut): Conv2d(384, 128, kernel_size=(1, 1), stride=(1, 1))
      (attn): Identity()
    )
    (13): ResBlock(
      (block1): Sequential(
        (0): GroupNorm(32, 256, eps=1e-05, affine=True)
        (1): Swish()
        (2): Conv2d(256, 128, kernel_size=(3, 3), stride=(1, 1), padding=(1, 1))
      )
      (temb_proj): Sequential(
        (0): Swish()
        (1): Linear(in_features=512, out_features=128, bias=True)
      )
      (cond_proj): Sequential(
        (0): Swish()
        (1): Linear(in_features=512, out_features=128, bias=True)
      )
      (block2): Sequential(
        (0): GroupNorm(32, 128, eps=1e-05, affine=True)
        (1): Swish()
        (2): Dropout(p=0.15, inplace=False)
        (3): Conv2d(128, 128, kernel_size=(3, 3), stride=(1, 1), padding=(1, 1))
      )
      (shortcut): Conv2d(256, 128, kernel_size=(1, 1), stride=(1, 1))
      (attn): Identity()
    )
    (14): ResBlock(
      (block1): Sequential(
        (0): GroupNorm(32, 256, eps=1e-05, affine=True)
        (1): Swish()
        (2): Conv2d(256, 128, kernel_size=(3, 3), stride=(1, 1), padding=(1, 1))
      )
      (temb_proj): Sequential(
        (0): Swish()
        (1): Linear(in_features=512, out_features=128, bias=True)
      )
      (cond_proj): Sequential(
        (0): Swish()
        (1): Linear(in_features=512, out_features=128, bias=True)
      )
      (block2): Sequential(
        (0): GroupNorm(32, 128, eps=1e-05, affine=True)
        (1): Swish()
        (2): Dropout(p=0.15, inplace=False)
        (3): Conv2d(128, 128, kernel_size=(3, 3), stride=(1, 1), padding=(1, 1))
      )
      (shortcut): Conv2d(256, 128, kernel_size=(1, 1), stride=(1, 1))
      (attn): Identity()
    )
  )
  (tail): Sequential(
    (0): GroupNorm(32, 128, eps=1e-05, affine=True)
    (1): Swish()
    (2): Conv2d(128, 3, kernel_size=(3, 3), stride=(1, 1), padding=(1, 1))
  )
)